backend/riasec_model.npz (npz, 5774 bytes, 2 tensors)

W1 f8 [60, 10]
00000000: 5ebe 773e 8ac6 e03f 6927 50e5 6e93 c4bf
00000010: f3e3 8b8c 93c5 94bf 2ed8 f593 6a85 e53f
00000020: 561e 17d2 b8f7 b0bf 2f03 1d99 101d cb3f
00000030: 92ff 1cde 719b 90bf c7f3 dba4 3ec7 b4bf
00000040: a927 e1ec d1d8 bf3f b23e 6501 4404 ccbf
00000050: f812 8dab 8d2d e1bf ecc5 3e97 9663 b9bf
00000060: 06a3 62c0 b60f d13f eb2e e2f2 8117 d5bf
00000070: 3c95 4390 9e54 d7bf 5e54 29cf 1cc4 9a3f
00000080: 7825 fca5 12a7 c53f a35b 9667 11d5 b8bf
00000090: 1075 46e0 0001 c2bf 9f90 0ebe 95cc c7bf
000000a0: 1cd8 ffdb bdcb df3f 6d45 fa41 a73f d6bf
000000b0: f8dc c62f 76be c0bf 4cd4 3041 f20e e83f
000000c0: 3a3e a2cc f7fe c23f 1688 4bb9 1dca c5bf
000000d0: f6f3 c505 b387 8abf 650f 0768 e274 b3bf
000000e0: 3174 95c3 5887 a5bf ec5b 141c bdfb 913f
000000f0: 90c8 9992 ef03 e8bf a3fe 31f5 afe2 acbf
00000100: 4d27 85ab 3b73 b1bf 1de0 7fa6 7452 d0bf
00000110: 4008 1b4e db5e b5bf f11a 8f69 738b c33f
00000120: 053b aa89 0b57 c6bf 8cc5 28a0 4f68 d1bf
00000130: 65a9 561c 82ea ab3f bfd2 9b80 baf9 9e3f
00000140: 3673 87df 35e1 e7bf 20dc f1f0 fa4a d13f
00000150: 4cb8 275c a1ae cabf 65ac 5949 0b77 d43f
00000160: 8d8b 3602 2d81 97bf 4219 7e8d e0e6 cfbf
00000170: 61f4 93e0 1d1d c6bf a0bd 8494 a44f b03f
00000180: 1966 9350 8261 b3bf 30cb a1bb 0328 c73f
00000190: 520e b07f 0dc8 e63f 992a 79a4 1146 d7bf
000001a0: 044f 25a3 5518 cebf 7c51 fc4f 97ee ec3f
000001b0: 3141 c36b 2e77 e0bf 7dba 82d9 ab2f b9bf
000001c0: b298 b885 d44d c63f 3552 1229 2c3b b13f
000001d0: b0eb 8ffe e3af a23f b8d7 bc56 306d cb3f
000001e0: 7c81 33b1 3b05 e43f c651 b0db 08d9 aabf
000001f0: a4e2 3823 c666 923f 7cfc 52e8 0083 e73f
00000200: 1b32 95c9 d483 d13f 1bd0 298b cde5 b6bf
00000210: d582 936b d56e a5bf 0539 9b4f c2e8 bf3f
00000220: 8753 43c6 153d c33f 413e 39a0 d48a d2bf
00000230: 784a 3a34 08c7 e43f 9784 2d03 25f4 903f
00000240: d12d ae80 7f76 c5bf 6253 0ccb f088 eb3f
00000250: 2bae d1ba 1a6e c8bf b799 8cbc 0f76 c83f
00000260: 3d09 a047 b3af c53f 82cc de4a 0d5e b73f
00000270: 6c1b 01a3 6a22 d43f 4e2b bb2a 82d5 d63f
00000280: 751d 8ad2 a868 e0bf 5d02 d5d8 b3a0 c7bf
00000290: 17b1 18a0 9000 b03f 0bb8 b563 0f79 d03f
000002a0: 2c52 eee0 ba45 bebf c254 a78b 2b4c bcbf
000002b0: 6281 c51e 6cea cc3f d3f6 6f36 bcf7 b3bf
000002c0: 0a68 d544 a286 ccbf 3fc9 13c5 5e1a cbbf
000002d0: 0807 0788 728c e0bf 4655 c718 e667 a5bf
000002e0: 8073 654d 8a6f b2bf 91a0 bd27 27a3 cb3f
000002f0: b3ac ac69 e041 afbf b95a a7cd 3599 77bf
00000300: 6344 eca8 e3e4 a33f 2a75 d146 2273 c0bf
00000310: 9abb 4293 d3ba 893f 10b3 ee4c bf13 8abf
00000320: 0a09 078c 1de9 ecbf ee39 3fb5 00d8 973f
00000330: 679f bee9 9e51 aa3f 4153 8ff8 6531 cfbf
00000340: 3903 fb93 639c c5bf a594 4fb2 15a4 c13f
00000350: d221 43d1 63c3 b03f 927e 68d8 ff39 e0bf
00000360: b960 b966 bfdb d1bf 894f 2826 216d c13f
00000370: 2630 941b d9d8 e23f 3797 3a39 c751 c7bf
00000380: 9456 9e7f 4d7b bfbf 86ef 3427 cf81 ee3f
00000390: d04a 9c1f d86f dabf 9b9f adf4 a63c bc3f
000003a0: b0f1 c7ac e824 abbf 2878 3f16 3738 723f
000003b0: 615a 1a01 5865 d3bf 223a 3a09 990c b3bf
000003c0: 0094 a15d 1cb4 e43f c3ba 13c7 4aef b23f
000003d0: 973b 6402 3ac4 cfbf d2d3 2a33 3891 e53f
000003e0: 8bc5 7e99 486d c6bf 3c6c 4e03 a580 b8bf
000003f0: fa58 fd00 7850 d3bf 53ec 3421 faa0 b53f
00000400: b3d0 627e 135a b6bf f3d8 d048 2326 d63f
00000410: d77a 4557 a7ad f2bf 88f2 5aeb 698f d43f
00000420: 390a 516a 85cd bd3f 3df3 9567 8177 d13f
00000430: 3c07 9d73 0565 acbf 1e52 2297 e58f d2bf
00000440: 2cff cc03 be31 a2bf 6a1d aa5b 6d5b d43f
00000450: 447c 2614 737b c6bf 899e 8e04 8807 c8bf
00000460: 8c3f 1b3f bd45 dd3f 1137 f349 8640 d03f
00000470: ba47 90f3 05ba c3bf d68a 1e0e 0d96 f03f
00000480: 2758 40e3 8efd c6bf 3937 3bd9 3f39 a8bf
00000490: bdfb a84d 8fdd b5bf be5a 5af2 327f a33f
000004a0: b1c2 3836 949d c6bf 309f ba2c 9a24 c43f
000004b0: 2404 092d 5a88 ddbf 184f 4e61 8fe8 c2bf
000004c0: da2d e2ec 8e66 dabf 213f 3f24 1499 c43f
000004d0: d18a 1ff9 d406 cebf f1df cfe2 77ac ccbf
000004e0: ccbc 0415 40bb c2bf 782a 3f10 3ea1 883f
000004f0: 3dbd 7534 4d7a b2bf e6cd 36b4 989f ccbf
00000500: 3c33 1b18 4169 e2bf 3910 7700 0635 c2bf
00000510: f171 872f 9b11 cabf feaf 2825 64ee aa3f
00000520: 627e ee25 60e1 c23f 334e cc76 4e51 be3f
00000530: 719e 825f 1be7 abbf edcf e5d9 5229 a73f
00000540: a6ab 44c2 85ca 873f 56b5 68f3 6921 a53f
00000550: 0217 49cc 6861 df3f 0f3e d4b3 9252 b5bf
00000560: 3a3a 3592 d298 8c3f 56a7 4ad0 6edd e73f
00000570: f0b3 7b0c cea5 cd3f 0e0e b317 ede6 90bf
00000580: a020 e320 e989 d7bf edee 269f 2461 b3bf
00000590: 4752 527d c1af d3bf 997e c833 ee08 cd3f
000005a0: 36db d05f 3199 e7bf b922 3c87 b709 c3bf
000005b0: c2f1 3930 ce49 d23f fd5d 13ea 178c b63f
000005c0: 628d 0244 cd32 c5bf 6281 3ea4 a92a d03f
000005d0: 308d 40d9 c7fc be3f 959f 07c8 a64c 85bf
000005e0: 2959 49cd 65b2 db3f cb71 0ad8 47e1 b9bf
000005f0: 7254 95b1 b544 cf3f 4750 f7fa c586 d0bf
00000600: 4e33 117d b100 a93f 0a06 21c7 9932 e83f
00000610: 3cb8 4b65 ab48 a63f a907 69bf a5a9 c0bf
00000620: 74ff ba3e b3c8 b13f 872f d3ef 53aa b2bf
00000630: 9852 f7be 53ec 7fbf 4c39 252a 6443 babf
00000640: c894 c878 9071 dc3f a5e7 87f3 6139 cfbf
00000650: 32e5 834c 61d2 c83f 6e6b 5251 2914 e33f
00000660: b440 0217 0188 b9bf 9ba5 ebc4 c002 d23f
00000670: 25a7 ea87 da24 c33f 1ddc c2b5 1815 a93f
00000680: ee94 0a31 8050 b8bf 072c ffb6 13a3 ca3f
00000690: 70a5 770c 9753 f0bf adb5 f7b0 fc91 a73f
000006a0: 3cf9 5ecf b216 9fbf 0540 66da 0051 b5bf
000006b0: d353 49c4 1fc8 bebf d236 cf5f 6260 913f
000006c0: 6ae9 6a61 18e9 c43f 1cab b31b 889a bb3f
000006d0: 6702 514e fc92 c0bf 74e4 d269 66ca b4bf
000006e0: f2c7 16fc 862d e33f 1a52 9ed0 ea42 86bf
000006f0: fc89 4204 9a97 cbbf bcdb 11cf c6da e73f
00000700: 6b0b 4b70 a8f1 d33f faf1 f3a8 352d a73f
00000710: 40ba 8382 8322 c7bf da59 b715 cca2 a6bf
00000720: 07cf bc1d 488b d9bf 0784 ec5b b1ab cebf
00000730: 9e2e 30f9 6643 e2bf 0115 b846 3511 d7bf
00000740: f9f4 85bc 284a a63f 3bea b7f4 0e1d cc3f
00000750: 9c5d 6b03 e1b9 ae3f 2954 7949 1fb6 abbf
00000760: 41fe b786 63e4 96bf 3eb2 511d db9f 5f3f
00000770: f606 5d7c 4e27 c5bf 36af 80c8 9b75 c6bf
00000780: de00 ce1a 52af e73f 1566 beee fbd3 c1bf
00000790: b212 4f38 c01e ae3f e6ba 5a75 8ee8 e63f
000007a0: d51e fba6 ab7d cc3f 3b08 b5d9 316d d03f
000007b0: 8e23 520e 9b47 b5bf a153 a50a 43b7 c63f
000007c0: 4d1b bc1d e880 96bf 1f9d 3e32 379a a53f
000007d0: fd30 a5ed 53a6 f0bf c210 a649 e410 c23f
000007e0: 6978 070e d231 a33f 2fae 9fdf 9528 c63f
000007f0: 8d9e b612 5fa5 c93f 3154 f6ec 9857 a8bf
0.5242358417580808 -0.16074930378845956 -0.02028494401290355 0.6725361718988603 -0.06627993706853749 0.21182448841320808 -0.016217974836080958 -0.08116523289568454
0.12440216096106717 -0.21888017719401415 -0.5368107176405763 -0.09917584602842283 0.26658409869791944 -0.3295597907933671 -0.3645397576168141 0.02613873495495899
0.16916115860685088 -0.09700115946757974 -0.1406556220144144 -0.1859309366237811 0.49681040272059973 -0.3476350921929086 -0.13081242878772747 0.7518245003944997
0.14840600482829008 -0.17023059413537628 -0.012954138387380337 -0.07600226440177733 -0.042048238635040376 0.017561869467581134 -0.7504804480834242 -0.05641698711496914
-0.06816456735137173 -0.2550326944324313 -0.08347864777445668 0.15269320158241542 -0.17453140470430398 -0.2719916404776874 0.05452353092126109 0.030249513721133377
-0.7462415090372818 0.27020143060457436 -0.2084542942024562 0.31976587451089805 -0.022953704128336794 -0.24923331173722302 -0.1727635714122782 0.06371525407734291
-0.07570661990339324 0.1809086481258304 0.7119204992199661 -0.36365166723104775 -0.2351176306352657 0.9041248857707127 -0.5145485024204729 -0.09838365612334062
0.17425018815374 0.06730915072177697 0.03649818880509004 0.21426967845189693 0.6256388150177794 -0.052437092606996624 0.017970176601212487 0.7347416436749792
0.2736713379461279 -0.08944401404897954 -0.04186121881662578 0.12464537089838153 0.15030166798410624 -0.28972354552113094 0.6492959041664355 0.016556337660749234
-0.16767877371999743 0.8604663816246154 -0.19086012002968408 0.191102950158166 0.16942444798775994 0.09127886846435909 0.3146006194914921 0.35678152249299877
-0.5127758133029788 -0.18459175193312918 0.06250862034420766 0.257388923046961 -0.11825149528005657 -0.11053726348412155 0.22590400221362034 -0.07799888924634084
-0.22285869942680875 -0.2117422544757321 -0.517144456556907 -0.04180831005548184 -0.07201446904714537 0.21591653290238758 -0.061049473666878205 -0.005761346978451592
0.03885566174552293 -0.12851360757751112 0.012563374454058796 -0.012732977423945552 -0.9034564719115974 0.02328492265933762 0.051403966935423644 -0.24369501721107592
-0.168835112815964 0.13781996924004605 0.06548141344968109 -0.507080004379491 -0.2790373328366616 0.1361428676906338 0.5889707125329593 -0.1821831731260148
-0.1229752003258347 0.9533458486325663 -0.4130764301964236 0.11030047868336938 -0.053015967456278346 0.004448142226435116 -0.3030605326434053 -0.07441097712783365
0.6469861820920642 0.07396380768089288 -0.24817586056493887 0.6739769934998725 -0.1752100705612459 -0.09571296053620498 -0.30178642365116526 0.0844875651427384
-0.08731195293040876 0.34607774840277655 -1.1673959168471606 0.32125328048622537 0.11641725392932124 0.27291903606219475 -0.055458231318438383 -0.29003276595293126
-0.035535753215752613 0.31808027221310076 -0.17564238056090364 -0.187729837632322 0.4573815456651509 0.25393826696095895 -0.1541144789958347 1.0366335441146268
-0.1796129808068951 -0.0473117783236447 -0.0854119839286644 0.03807982643518447 -0.1766839279894348 0.1573670118716506 -0.46144728086443565 -0.1477221703649938
-0.41250966199069483 0.16092159051776725 -0.23458349384517033 -0.22401331496052948 -0.14633942629141072 0.01202629553872224 -0.07217867403754936 -0.22362049865260686
-0.5753484221291738 -0.1422431471129373 -0.20366229840045905 0.052600030456545696 0.147502916833207 0.11842813873618567 -0.054497580918277395 0.04523714933284837
0.011616749754997557 0.041270552599921004 0.4903203959441812 -0.08329121485098077 0.013963360869323361 0.7457803791232702 0.23162246331722214 -0.016505913325785264
-0.36779239856378787 -0.07570103536175639 -0.3076022838443219 0.22683503654933615 -0.7374503013041707 -0.14873403647677266 0.2857547255478289 0.08807515587556476
-0.165612848480218 0.2526039222666637 0.12104462675101924 -0.010400107364105607 0.43276352927695655 -0.1010937597697598 0.24428435488758599 -0.25822591312794824
0.04883341457079969 0.756176842616868 0.04352317439575912 -0.13017722936825507 0.06946869164948827 -0.07291149716473742 -0.007793738491689205 -0.10259080914440694
0.44443141742005965 -0.24393867865711374 0.1939202903375104 0.5962111080474253 -0.09973151027429844 0.28141803007619054 0.149562183728727 0.04898907870067879
-0.09497834393785684 0.20810171542538589 -1.0204077231413429 0.04603566799401491 -0.030360025317116554 -0.08326726276413872 -0.12024115125798511 0.016969239328139825
0.16336350208969047 0.10782671619714929 -0.12948564361615242 -0.08121337970341519 0.5993075297940307 -0.010869822017221021 -0.2155640145111447 0.7454561275798066
0.3116246315586781 0.04526679694570031 -0.1807407748487595 -0.04421079411592972 -0.399126080551682 -0.23961464870902224 -0.5707278124768498 -0.3604252997032092
0.04353453923520507 0.21963679265157218 0.0600118939088887 -0.05412385723017394 -0.02235560903318246 0.0019302024641333483 -0.16526204178267506 -0.17546412744683842
0.7401514552621185 -0.13928174168977195 0.05882836043705221 0.7158882419660955 0.2225851598106973 0.2566647172972158 -0.08312386607771158 0.17746770877661525
-0.021976115050189638 0.042192196734783353 -1.0406073840159131 0.14114049526336286 0.037489475452944294 0.1731135694420671 0.20035923398721814 -0.04754331486325503

W2 f8 [10, 6]
00000000: 7534 98d6 5b1d 1240 c226 4502 2756 f6bf
00000010: 2cbf 681c 34e1 f9bf dd66 1f8a 0277 c4bf
00000020: 3802 d81c 6172 bd3f 3315 b323 9e64 cb3f
00000030: 5482 831f 8243 dabf d66f c382 1b1a bfbf
00000040: fba0 68b4 596f 9dbf 5a42 84e0 baf6 e23f
00000050: 05d1 5e94 72c4 b8bf 9f32 a733 de57 cdbf
00000060: bb5c bf94 5b5b d1bf 796d 656e 5216 c73f
00000070: d09f 1cca e3c3 e23f d29d de09 a481 c33f
00000080: 2cff 8b1c 85c1 e1bf c529 9093 7a60 e33f
00000090: 5917 8ab6 c6b0 dbbf b148 ab14 b457 0940
000000a0: 982f ff78 b47e 0a40 0603 c71f 106e fabf
000000b0: cb8f 2a14 90bc fabf 7161 f0e5 9286 fabf
000000c0: a170 d289 1319 c23f 94eb 4e33 d624 d7bf
000000d0: 5cc4 3f43 1307 e33f d25b 4ea7 84c2 e13f
000000e0: 3c7b d78e c13d d73f 5cdc f4fa 35fa b2bf
000000f0: 4634 571d 9023 db3f e759 b91a f4d5 d93f
00000100: 75dc f18f 1c70 c63f 5c57 808e 8f8e e53f
00000110: 72c7 a664 2428 c5bf 5a55 fdc3 6778 e03f
00000120: 9117 5d78 0aff e0bf e064 f8de fe94 e7bf
00000130: 22e1 c470 e07d bdbf a25e 7d8d 34cf e2bf
00000140: ca0f 5de7 5aca cc3f beee 4e0d 5e6f de3f
00000150: 9dd4 d0a5 4cdb eabf 858e c35d 9ed0 e23f
00000160: d1c3 ae3f dbd0 d8bf 2432 9eba cc84 cfbf
00000170: a369 fc59 8bbe e4bf fe25 78b6 180d dc3f
00000180: 8a12 9eb0 b7a8 d13f a67b 8109 d4f1 c43f
00000190: abe3 b336 4409 cfbf 4c87 d09e a41d c6bf
000001a0: 544f 37c3 5cb9 d13f 9fec 2fb5 135a cfbf
000001b0: ea03 12a3 9a67 d8bf 49f0 5978 5d05 d4bf
000001c0: 2ef5 0f4e 664b db3f d918 ccc7 f83a babf
000001d0: a593 7f45 fa23 e3bf f73c 7296 796f d33f
4.528670647659159 -1.3960332955052057 -1.6174813375218475 -0.1598818945338313 0.11502654031938497 0.2140081095041438 -0.4103703792334603 -0.1214921182867664
-0.028745080600999433 0.5926184067812514 -0.09674755213092474 -0.22924401781201184 -0.271201033841361 0.18036871328773055 0.5864123294350012 0.15239382249749994
-0.5548730428272157 0.6055271989910628 -0.43266456438174355 3.1678239455005373 3.3118676617504654 -1.6518708459190647 -1.6710358417267226 -1.6578549367896722
0.14139026860801088 -0.36162333498548915 0.5946136773546971 0.5549948947617571 0.3631442923487389 -0.07413041474215859 0.4240455900697423 0.4036836873032414
0.1752963736396144 0.6736524375180397 -0.16528754152892194 0.5146979167863421 -0.5311329222538338 -0.7369379382027113 -0.11520197632933507 -0.5877936137648769
0.22492538735434514 0.4755473260845341 -0.8392699469174151 0.5879661399198574 -0.3877475854779365 -0.2462402259083244 -0.6482598073519522 0.4382993490149544
0.2759227013378128 0.16363001312398956 -0.24247028990774075 -0.17277963404290586 0.27693862022464555 -0.24493643137961826 -0.38132348942605054 -0.31282746079501017
0.4264770281150331 -0.10246233823645258 -0.598141799677809 0.30367889110580343
